…
2025-03-04 19:53:31,603   INFO  Predicted boxes has been loaded, total sequences: 798
2025-03-04 19:53:32,552   INFO  ----------- Model FASTer created, param count: 7293136 -----------
2025-03-04 19:53:32,552   INFO  FASTer(
  (vfe): None
  (backbone_3d): None
  (map_to_bev_module): None
  (pfe): None
  (backbone_2d): None
  (dense_head): None
  (point_head): None
  (roi_head): FASTerHead(
    (proposal_target_layer): ProposalTargetLayer()
    (reg_loss_func): WeightedSmoothL1Loss()
    (voxel_sampler_cur): VoxelPointsSampler()
    (voxel_sampler): VoxelSampler()
    (jointembed): MLP(
      (layers): ModuleList(
        (0): Linear(in_features=256, out_features=256, bias=True)
        (1): Linear(in_features=256, out_features=256, bias=True)
        (2): Linear(in_features=256, out_features=256, bias=True)
        (3): Linear(in_features=256, out_features=7, bias=True)
      )
    )
    (up_dimension_geometry): MLP(
      (layers): ModuleList(
        (0): Linear(in_features=29, out_features=64, bias=True)
        (1): Linear(in_features=64, out_features=64, bias=True)
        (2): Linear(in_features=64, out_features=256, bias=True)
      )
    )
    (up_dimension_motion): MLP(
      (layers): ModuleList(
        (0): Linear(in_features=30, out_features=64, bias=True)
        (1): Linear(in_features=64, out_features=64, bias=True)
        (2): Linear(in_features=64, out_features=256, bias=True)
      )
    )
    (transformerSSP): Transformer(
      (encoder): TransformerEncoder(
        (layers): ModuleList(
          (0): TransformerEncoderLayer(
            (self_attn): MultiheadAttention(
              (out_proj): NonDynamicallyQuantizableLinear(in_features=256, out_features=256, bias=True)
            )
            (linear1): Linear(in_features=256, out_features=512, bias=True)
            (dropout): Dropout(p=0.1, inplace=False)
            (linear2): Linear(in_features=512, out_features=256, bias=True)
            (norm1): LayerNorm((256,), eps=1e-05, elementwise_affine=True)
            (norm2): LayerNorm((256,), eps=1e-05, elementwise_affine=True)
            (dropout1): Dropout(p=0.1, inplace=False)
            (dropout2): Dropout(p=0.1, inplace=False)
            (mlp_mixer_3d): SpatialDropBlock(
              (mixer): Adaptive_MHSA(
                (dropout): Dropout(p=0.1, inplace=False)
                (out_proj): NonDynamicallyQuantizableLinear(in_features=256, out_features=256, bias=True)
              )
              (dropout): Dropout(p=0.1, inplace=False)
              (norm): LayerNorm((256,), eps=1e-05, elementwise_affine=True)
              (norm_channel): LayerNorm((256,), eps=1e-05, elementwise_affine=True)
              (ffn): Sequential(
                (0): Linear(in_features=256, out_features=512, bias=True)
                (1): ReLU()
                (2): Dropout(p=0.1, inplace=False)
                (3): Linear(in_features=512, out_features=256, bias=True)
              )
            )
          )
          (1): TransformerEncoderLayer(
            (self_attn): MultiheadAttention(
              (out_proj): NonDynamicallyQuantizableLinear(in_features=256, out_features=256, bias=True)
            )
            (linear1): Linear(in_features=256, out_features=512, bias=True)
            (dropout): Dropout(p=0.1, inplace=False)
            (linear2): Linear(in_features=512, out_features=256, bias=True)
            (norm1): LayerNorm((256,), eps=1e-05, elementwise_affine=True)
            (norm2): LayerNorm((256,), eps=1e-05, elementwise_affine=True)
            (dropout1): Dropout(p=0.1, inplace=False)
            (dropout2): Dropout(p=0.1, inplace=False)
            (mlp_mixer_3d): SpatialDropBlock(
              (mixer): Adaptive_MHSA(
                (dropout): Dropout(p=0.1, inplace=False)
                (out_proj): NonDynamicallyQuantizableLinear(in_features=256, out_features=256, bias=True)
              )
              (dropout): Dropout(p=0.1, inplace=False)
              (norm): LayerNorm((256,), eps=1e-05, elementwise_affine=True)
              (norm_channel): LayerNorm((256,), eps=1e-05, elementwise_affine=True)
              (ffn): Sequential(
                (0): Linear(in_features=256, out_features=512, bias=True)
                (1): ReLU()
                (2): Dropout(p=0.1, inplace=False)
                (3): Linear(in_features=512, out_features=256, bias=True)
              )
            )
          )
          (2): TransformerEncoderLayer(
            (self_attn): MultiheadAttention(
              (out_proj): NonDynamicallyQuantizableLinear(in_features=256, out_features=256, bias=True)
            )
            (linear1): Linear(in_features=256, out_features=512, bias=True)
            (dropout): Dropout(p=0.1, inplace=False)
            (linear2): Linear(in_features=512, out_features=256, bias=True)
            (norm1): LayerNorm((256,), eps=1e-05, elementwise_affine=True)
            (norm2): LayerNorm((256,), eps=1e-05, elementwise_affine=True)
            (dropout1): Dropout(p=0.1, inplace=False)
            (dropout2): Dropout(p=0.1, inplace=False)
            (mlp_mixer_3d): SpatialDropBlock(
              (mixer): Adaptive_MHSA(
                (dropout): Dropout(p=0.1, inplace=False)
                (out_proj): NonDynamicallyQuantizableLinear(in_features=256, out_features=256, bias=True)
              )
              (dropout): Dropout(p=0.1, inplace=False)
              (norm): LayerNorm((256,), eps=1e-05, elementwise_affine=True)
              (norm_channel): LayerNorm((256,), eps=1e-05, elementwise_affine=True)
              (ffn): Sequential(
                (0): Linear(in_features=256, out_features=512, bias=True)
                (1): ReLU()
                (2): Dropout(p=0.1, inplace=False)
                (3): Linear(in_features=512, out_features=256, bias=True)
              )
            )
          )
        )
      )
    )
    (transformerMSP): Grouped_Hierarchical_Fusion(
      (attention): SpatialDropBlock(
        (mixer): Adaptive_MHSA(
          (dropout): Dropout(p=0.1, inplace=False)
          (out_proj): NonDynamicallyQuantizableLinear(in_features=256, out_features=256, bias=True)
        )
        (dropout): Dropout(p=0.1, inplace=False)
        (norm): LayerNorm((256,), eps=1e-05, elementwise_affine=True)
        (norm_channel): LayerNorm((256,), eps=1e-05, elementwise_affine=True)
        (ffn): Sequential(
          (0): Linear(in_features=256, out_features=512, bias=True)
          (1): ReLU()
          (2): Dropout(p=0.1, inplace=False)
          (3): Linear(in_features=512, out_features=256, bias=True)
        )
      )
      (group_fusion1): Intra_Group_Fusion(
        (conv): Sequential(
          (0): Conv1d(1024, 256, kernel_size=(1,), stride=(1,))
          (1): BatchNorm1d(256, eps=1e-05, momentum=0.1, affine=True, track_running_stats=True)
          (2): ReLU()
        )
        (linear): ModuleList(
          (0): Linear(in_features=512, out_features=256, bias=True)
          (1): Linear(in_features=512, out_features=256, bias=True)
          (2): Linear(in_features=512, out_features=256, bias=True)
          (3): Linear(in_features=512, out_features=256, bias=True)
        )
        (dropout): ModuleList(
          (0): Dropout(p=0.1, inplace=False)
          (1): Dropout(p=0.1, inplace=False)
          (2): Dropout(p=0.1, inplace=False)
          (3): Dropout(p=0.1, inplace=False)
        )
        (norm): LayerNorm((256,), eps=1e-05, elementwise_affine=True)
      )
      (attention2): SpatialDropBlock(
        (mixer): Adaptive_MHSA(
          (dropout): Dropout(p=0.1, inplace=False)
          (out_proj): NonDynamicallyQuantizableLinear(in_features=256, out_features=256, bias=True)
        )
        (dropout): Dropout(p=0.1, inplace=False)
        (norm): LayerNorm((256,), eps=1e-05, elementwise_affine=True)
        (norm_channel): LayerNorm((256,), eps=1e-05, elementwise_affine=True)
        (ffn): Sequential(
          (0): Linear(in_features=256, out_features=512, bias=True)
          (1): ReLU()
          (2): Dropout(p=0.1, inplace=False)
          (3): Linear(in_features=512, out_features=256, bias=True)
        )
      )
      (group_fusion2): Intra_Group_Fusion(
        (conv): Sequential(
          (0): Conv1d(1024, 256, kernel_size=(1,), stride=(1,))
          (1): BatchNorm1d(256, eps=1e-05, momentum=0.1, affine=True, track_running_stats=True)
          (2): ReLU()
        )
        (linear): ModuleList(
          (0): Linear(in_features=512, out_features=256, bias=True)
          (1): Linear(in_features=512, out_features=256, bias=True)
          (2): Linear(in_features=512, out_features=256, bias=True)
          (3): Linear(in_features=512, out_features=256, bias=True)
        )
        (dropout): ModuleList(
          (0): Dropout(p=0.1, inplace=False)
          (1): Dropout(p=0.1, inplace=False)
          (2): Dropout(p=0.1, inplace=False)
          (3): Dropout(p=0.1, inplace=False)
        )
        (norm): LayerNorm((256,), eps=1e-05, elementwise_affine=True)
      )
      (attention3): SpatialMixerBlock(
        (mixer): MultiheadAttention(
          (out_proj): NonDynamicallyQuantizableLinear(in_features=256, out_features=256, bias=True)
        )
        (dropout): Dropout(p=0.1, inplace=False)
        (norm): LayerNorm((256,), eps=1e-05, elementwise_affine=True)
        (norm_channel): LayerNorm((256,), eps=1e-05, elementwise_affine=True)
        (ffn): Sequential(
          (0): Linear(in_features=256, out_features=512, bias=True)
          (1): ReLU()
          (2): Dropout(p=0.1, inplace=False)
          (3): Linear(in_features=512, out_features=256, bias=True)
        )
      )
      (decoder_layer): CrossMixerBlock(
        (mixer): MultiheadAttention(
          (out_proj): NonDynamicallyQuantizableLinear(in_features=256, out_features=256, bias=True)
        )
        (dropout): Dropout(p=0.1, inplace=False)
        (norm): LayerNorm((256,), eps=1e-05, elementwise_affine=True)
        (norm_channel): LayerNorm((256,), eps=1e-05, elementwise_affine=True)
        (ffn): Sequential(
          (0): Linear(in_features=256, out_features=512, bias=True)
          (1): ReLU()
          (2): Dropout(p=0.1, inplace=False)
          (3): Linear(in_features=512, out_features=256, bias=True)
        )
      )
    )
    (class_embed): ModuleList(
      (0): Linear(in_features=256, out_features=1, bias=True)
    )
    (class_embed_final): Linear(in_features=256, out_features=1, bias=True)
    (bbox_embed): ModuleList(
      (0): MLP(
        (layers): ModuleList(
          (0): Linear(in_features=256, out_features=256, bias=True)
          (1): Linear(in_features=256, out_features=256, bias=True)
          (2): Linear(in_features=256, out_features=256, bias=True)
          (3): Linear(in_features=256, out_features=7, bias=True)
        )
      )
    )
  )
)
2025-03-04 19:53:32,553   INFO  **********************Start training waymo_models/faster_16frames(default)**********************
2025-03-04 19:53:32,554   INFO  Loading Waymo dataset
2025-03-04 19:53:35,854   INFO  Total skipped info 0
2025-03-04 19:53:35,854   INFO  Total samples for Waymo dataset: 158081
2025-03-04 19:53:35,854   INFO  Loading and reorganizing pred_boxes to dict from path: ../output/waymo_models/centerpoint_4frames/Interval5/eval/epoch_36/train/Interval1/result.pkl
…
